emotion_cnn.pth (torch, 274616 bytes, 16 tensors)

conv1.weight f4 [64, 40, 3]
000000 43 02 69 bd f2 6b 98 3c e5 44 e8 bc 91 8b 21 bd
       -0.056886923 0.01860616 -0.028353164 -0.03943974
000010 bf 2d 8c 3d a3 e6 41 bd 17 51 db 3d 9c 23 b1 3d
       0.06844663 -0.047339093 0.10708826 0.0864937
000020 65 c1 d7 bd d2 87 24 bd ed 4b b6 bd 1d 1a a3 3b
       -0.10534934 -0.04016859 -0.089012004 0.004977478
000030 f4 d0 2b 3b b4 eb b2 3d 05 f6 48 3e 54 0f c2 3d
       0.0026217075 0.08736363 0.19625099 0.0947558
000040 fa 2c a1 bc a8 0e 0f be 3f 99 fb 3d 7e 90 4f 3d
       -0.019674767 -0.13970435 0.12285089 0.050674908
000050 90 b6 c9 3d fc b3 0d bd 8b c2 18 3d a4 aa 1d 3e
       0.09849274 -0.034595475 0.037294906 0.15397125
000060 9e 95 7b bd a2 b1 a8 3c c8 e8 1c bd 33 9a 85 bd
       -0.061421983 0.020592514 -0.038307935 -0.06523552
000070 6f eb 78 bd a2 66 f3 bd 04 9d 73 3d 37 43 3c bd
       -0.060771402 -0.1188481 0.059475914 -0.04596254
000080 38 23 7f bd b2 85 23 bc 8d 6c 29 bb c1 f0 b7 3d
       -0.062289447 -0.009980606 -0.0025852055 0.08981467
000090 be 3a b5 bd d1 10 6f bd 44 da a3 bd 77 01 5b bc
       -0.08849095 -0.058365647 -0.08000615 -0.013367048
0000a0 0b 8a 01 3e 7b 1e 0a 3c f5 75 8f bd 8e 61 73 3d
       0.12650315 0.008430119 -0.070049204 0.059419207
0000b0 08 cf a4 bc 3b 6b 3a be 53 25 b5 bd b7 67 20 be
       -0.020118251 -0.18204968 -0.0884501 -0.15664564
0000c0 07 45 0e 3d 4d 92 ce bd 7d cb 97 3d 5b 17 e4 3d
       0.0347338 -0.100864984 0.07411859 0.11137267
0000d0 57 fb 2b 3e 65 ef 01 3e 9a 32 c1 bc fe 32 a9 bd
       0.16795097 0.12688978 -0.023583699 -0.08261679
0000e0 33 ab f5 3c bc 05 83 3d a7 0e 60 bd 8c dc 82 3d
       0.02998886 0.06397578 -0.054701474 0.06389722
0000f0 92 8a aa 3c ba 66 0c bb aa 84 20 bd d0 0e b2 3d
       0.020818029 -0.0021423534 -0.03918902 0.086942315
000100 60 f2 25 3e b5 88 83 3d a8 40 c1 bd 97 47 c5 bd
       0.1620574 0.06422559 -0.0943616 -0.09632795
000110 f5 66 8d bd 25 c1 40 bd ca fa c9 bb da 21 b3 bc
       -0.06904403 -0.047059197 -0.0061639296 -0.021866728
000120 62 a9 08 be cc 4e 77 be b8 ee a2 bd e2 04 f5 bd
       -0.13345864 -0.24151152 -0.07955688 -0.11963822
000130 65 09 3f be d0 4d 89 bb d5 5f d3 39 7f 7f dc bd
       -0.18655927 -0.004190184 0.00040316457 -0.107665055
000140 e1 9e 2f ba af d6 14 be 9e 68 67 be f2 82 75 be
       -0.0006699395 -0.1453502 -0.22598502 -0.23975733
000150 03 57 e5 bd 54 cb 6d bc b3 e5 ef bd 17 8e 48 bc
       -0.11198237 -0.014513809 -0.117137335 -0.012240908
000160 9e d3 b6 bd ed c0 ed bd 94 86 83 3c b7 db b6 3d
       -0.089270815 -0.11609063 0.016055383 0.08928626
000170 64 c2 a1 3d 56 40 ab bd af 43 c1 bb 6c bc 9d 3d
       0.07898405 -0.083618805 -0.005897961 0.07701954
000180 b2 7f 7b bc 4d 8e fb bc 48 f1 ee bd c4 1e cc 3c
       -0.015350269 -0.030707503 -0.116671145 0.024917014
000190 e5 97 cd bd 58 dd 12 bd f7 56 4d bd f5 a7 ec bc
       -0.10038737 -0.03585562 -0.050131764 -0.028888682
0001a0 3a 6e 24 bc 26 3b ff 3c 62 3d ca 3d 76 76 63 3e
       -0.010036046 0.031156134 0.09874989 0.22213158
0001b0 d6 03 ed 3d 65 8e 92 3d d9 20 2f 3e 5d 63 98 bd
       0.11572997 0.07156066 0.17102374 -0.07440827
0001c0 1e b0 0e be d9 f0 11 be 85 a5 0d bd 24 a7 41 bb
       -0.13934371 -0.14252032 -0.03458168 -0.0029549086
0001d0 6e 70 0a 3e 0b 39 dc bd a2 27 00 be ee 8b f1 bd
       0.13519451 -0.107530676 -0.12515119 -0.117942676
0001e0 15 2b da bd 75 ca 1e 3d c1 4f ba bc c6 cd ac bc
       -0.106527485 0.038767297 -0.022743108 -0.021094214
0001f0 66 ec 14 bd e4 66 b2 3d d2 42 b6 3c bf e4 0e bc
       -0.03635826 0.08711031 0.02224866 -0.0087215295
000200 b4 c8 00 be bc 6e c7 3d e4 d6 91 bc 36 6c 0a be
       -0.12576562 0.09737918 -0.017802663 -0.13517842
000210 27 61 0d 3d 9e 5b 9d bd 3a 28 7d bd d2 f7 b5 3d
       0.03451648 -0.0768349 -0.06180594 0.088851586
000220 05 30 88 bc 15 44 13 3d 62 ab 13 3d c2 c4 ae bd
       -0.01662446 0.0359536 0.036052115 -0.08533622
000230 6c ee d3 bd 18 6e 1b bb 84 7e 52 bd 37 9b b6 bd
       -0.1034821 -0.0023716744 -0.051390186 -0.08916324
000240 b3 f2 01 3e d0 f1 10 3d 33 a1 be bd aa a1 a2 bd
       0.12690239 0.03538686 -0.0930809 -0.07940991
000250 49 bf 94 bc 0f 6b 85 bc 3d 77 34 be 75 eb 3f bd
       -0.018157618 -0.016286401 -0.17623611 -0.04685541
000260 d5 49 10 be f4 7d 91 3c be db 9b bb d9 be 1b be
       -0.14090665 0.017760254 -0.00475642 -0.15209521
000270 c3 30 08 3e 18 8b 84 bd 16 fd da bd de c4 9c 3d
       0.13299851 -0.064718425 -0.106928036 0.07654737
000280 82 26 83 bb 41 ab db 3d ba 14 0f 3e 03 49 8f 39
       -0.004002393 0.107260235 0.1397275 0.00027329483
000290 f8 45 de bc 03 01 87 3d f0 e6 9a bd b2 7b 9e bd
       -0.027132973 0.0659199 -0.07563579 -0.07738437
0002a0 1f db 0b 3e 81 28 c9 bd 6e 88 9c bd 84 ce 10 3e
       0.13657807 -0.09822179 -0.076432094 0.1414128
0002b0 29 91 d1 3d 1c 27 17 3e f9 5c 07 be c2 41 42 be
       0.10232765 0.14761013 -0.1321906 -0.18970397
0002c0 c1 a8 d3 bd 4e 7f 90 3d c7 b3 88 3d ba 3d 0c 3d
       -0.10334922 0.070555314 0.06674915 0.034238555
0002d0 b8 96 63 3c 14 ec 51 3b 15 f0 26 3e 79 2f e5 3d
       0.013890915 0.0032031583 0.16302522 0.11190695
0002e0 a2 23 ed ba 60 14 c9 3c 3e 99 61 bd 44 d5 92 3d
       -0.0018092284 0.024545848 -0.055077784 0.071695834
0002f0 9b 47 85 3d f8 33 23 be 42 6e af bd a5 54 ab 3d
       0.06507798 -0.15937793 -0.08565952 0.08365754
000300 73 e2 a4 bc 6c ab ab 3c 96 c3 11 3e e6 f0 ed bd
       -0.02012751 0.020955764 0.14234766 -0.11618213
000310 18 9d 1e bb 9b 49 a0 3d 35 3f 69 bd 5f eb 2a bc
       -0.0024202522 0.07826539 -0.056945045 -0.010432093
000320 05 e2 18 bd 1b a6 95 bd 51 9a d8 3d a4 26 14 bd
       -0.037324924 -0.07307073 0.105763085 -0.036169663
000330 16 1d 58 bd 05 ae 26 3d 69 d0 36 bc d9 88 6f bc
       -0.052762114 0.0406933 -0.011158087 -0.014620029
000340 3b 82 bf 3d da 3b 64 3d b7 43 cd 3d 1b 0b 6b bd
       0.09351011 0.05572114 0.10022681 -0.057383638
000350 e5 e2 2c bd 2b 9d 82 bc 96 ea 87 3d 71 ef 97 3c
       -0.04220857 -0.015944084 0.066365406 0.018546792
000360 c4 37 00 be 78 97 a6 bd f9 88 2a be 4c e9 a9 3d
       -0.12521273 -0.08134359 -0.16653813 0.08296451
000370 5a c9 e8 bd f1 5c 7e 3d 3f aa a7 3d ce 92 0e 3e
       -0.1136653 0.062100355 0.08186769 0.13923189
000380 0b ee 29 3e 43 41 83 bd 93 2c ac bd b5 44 07 bd
       0.16594712 -0.06408932 -0.08406939 -0.03302451
000390 7f 71 ec 3d eb 96 fc ba 9d e1 8c bd 5a 4b 33 3e
       0.11545085 -0.0019271051 -0.0687897 0.17509213
0003a0 98 d1 50 3d bc eb 02 be 53 60 0c be a7 d6 51 be
       0.050981134 -0.12785238 -0.1370862 -0.2049204
0003b0 77 4f 99 bd 56 36 28 bd 16 ce 13 bd 51 35 c9 bd
       -0.0748586 -0.041067444 -0.03608521 -0.098246224
0003c0 8d e7 5c 3d 34 92 e0 bc 2f 70 41 3d 63 12 57 ba
       0.05393176 -0.027413465 0.047226127 -0.0008204339
0003d0 e9 10 87 3d 22 9f 33 bd 6e 34 44 3d 01 73 92 3d
       0.06595022 -0.043852933 0.047901563 0.071508415
0003e0 67 82 d3 bc 61 db 92 3c 88 f7 80 bd 12 a5 75 bd
       -0.025819017 0.017926874 -0.06297213 -0.059971876
0003f0 7d 28 03 bd b9 8e af bd 30 d9 31 be 85 6e be bd
       -0.032021035 -0.08572144 -0.17368007 -0.09298424

conv1.bias f4 [64]
000000 c1 c4 40 bc e6 45 d6 bb c6 8f 24 3d cb 3a 5d 3d
       -0.01176566 -0.0065390943 0.040176176 0.054011147
000010 06 5c 5e bd fb df a0 bb 60 ed 20 bd f6 da b7 bd
       -0.05428698 -0.004909513 -0.03928888 -0.0897731
000020 51 0c e5 bb b2 b6 04 bd b9 b0 21 3d 82 6a af 3d
       -0.0069899936 -0.032400794 0.039475176 0.08565237
000030 e5 ef 79 3c 4c 15 79 bd ef 87 9e 3c 71 7d c8 3c
       0.015254949 -0.060811326 0.019351928 0.024473878
000040 9d f5 5b bc 89 69 24 3d 13 f6 7b 3c 9b 3f 11 bd
       -0.013425258 0.04013971 0.015378493 -0.03546105
000050 c2 6b a8 3d 95 83 be 37 c7 ee 32 bc b9 27 2b 3d
       0.08223678 2.2711038e-05 -0.010921187 0.04178593
000060 de fd b5 3d f4 92 99 3d 56 f6 ac bb b2 f8 32 bc
       0.08886312 0.07498732 -0.005278389 -0.010923551
000070 a9 02 99 bd d1 2d df bc fc 41 e0 bc d9 84 b7 bd
       -0.074712105 -0.027243527 -0.027375214 -0.089608856
000080 2c 42 00 bc d4 e2 af bd 7e 05 1d 3d 04 24 a1 bd
       -0.007828277 -0.08588186 0.038335316 -0.078681976
000090 73 f2 8d 3c 48 34 ab 3d a0 2d 1a 3d 6e f1 cb bc
       0.017327523 0.08359581 0.037641168 -0.024895396
0000a0 22 bb 9a 3d 07 ae cf 3b cd 3c af bd fe 70 0d 3d
       0.07555224 0.0063378843 -0.08556519 0.034531586
0000b0 3c ce c2 bd 59 d0 af 3d df 6d 60 bc 7b 05 33 bd
       -0.09511992 0.08584661 -0.01369807 -0.0437064
0000c0 ad 66 81 bd 53 da 86 bd 1c f5 f5 3c c6 c1 9a 3d
       -0.06318412 -0.06584611 0.030024104 0.075564906
0000d0 37 73 80 bd ba b8 4a bc fe 28 f5 3c 0f 2e aa 3d
       -0.062719755 -0.012373144 0.029926773 0.08309566
0000e0 55 b8 42 bc fc 8f 08 3d 80 0d 0f 3c 28 36 0f bd
       -0.0118847685 0.03334044 0.008731246 -0.034963757
0000f0 20 f6 06 3c 53 7f a0 bd 7a 79 fa 3c d9 03 bf bc
       0.008237392 -0.07836785 0.030575503 -0.023317264

bn1.weight f4 [64]
000000 63 c0 77 3f 3a 2b 6f 3f ec 8e 7e 3f ce 82 5c 3f
       0.96777934 0.93425333 0.9943683 0.8613709
000010 d2 e6 6f 3f f9 88 7d 3f bd df 6a 3f 6e 27 7b 3f
       0.9371158 0.9903713 0.9174765 0.9810704
000020 49 54 90 3f af f3 73 3f 25 8b 7d 3f b1 63 81 3f
       1.1275722 0.95293707 0.9904044 1.0108548
000030 21 12 85 3f 58 56 59 3f 5a 1c 88 3f f5 a8 75 3f
       1.0396158 0.84897375 1.0633652 0.9596093
000040 67 43 75 3f e2 4d 67 3f 65 8a 7d 3f 5a 7e 85 3f
       0.9580597 0.90353215 0.990393 1.0429184
000050 22 92 70 3f 03 39 6e 3f a4 ff 76 3f a5 c9 80 3f
       0.9397298 0.9305574 0.96483827 1.0061537
000060 f4 7d 83 3f 81 10 75 3f 74 1f 73 3f 31 cb 71 3f
       1.0272813 0.9572831 0.9496987 0.9445067
000070 43 80 84 3f d7 1f 72 3f ca 22 83 3f 46 4c 58 3f
       1.0351642 0.94579834 1.0244992 0.84491384
000080 d9 85 7c 3f cb 9a 85 3f 35 73 66 3f d6 34 80 3f
       0.98641735 1.0437864 0.9001954 1.0016124
000090 d7 f0 86 3f 93 38 6e 3f 85 4d 68 3f 75 5c 87 3f
       1.0542248 0.93055075 0.90743285 1.0575091
0000a0 42 cc 86 3f f9 61 77 3f 3d 60 70 3f 27 bd 87 3f
       1.0531085 0.9663387 0.9389685 1.06046
0000b0 96 22 7a 3f 36 1b 83 3f 99 76 73 3f ff 16 76 3f
       0.97709024 1.0242679 0.9510284 0.9612884
0000c0 7e 23 8c 3f fe 3e 82 3f 2e f6 83 3f ce ce 87 3f
       1.0948331 1.0175474 1.0309503 1.0609987
0000d0 52 39 81 3f 7c 37 7a 3f 2e 65 7d 3f cf 39 80 3f
       1.0095618 0.9774091 0.9898251 1.0017642
0000e0 ea 53 86 3f 57 f0 80 3f a3 7a 8c 3f 54 fc 6f 3f
       1.0494359 1.0073346 1.0974926 0.937444
0000f0 aa 4c 83 3f 7d 70 88 3f 74 57 58 3f df 34 74 3f
       1.0257771 1.0659329 0.8450844 0.95393175

bn1.bias f4 [64]
000000 a4 46 c9 bd b4 f6 46 be ef f7 56 be 4a ba 3d be
       -0.09827927 -0.19430047 -0.20993017 -0.18528095
000010 23 42 65 be 27 53 3e be 63 aa 4c be f0 ca 52 be
       -0.2238851 -0.18586408 -0.19986872 -0.20585227
000020 f2 1b c2 bd 63 df f2 bc 78 84 48 be c1 32 d1 bd
       -0.094779864 -0.029647535 -0.19581783 -0.10214759
000030 03 45 73 be ab ac 47 be 5f ef ed bd c0 17 53 be
       -0.23756795 -0.19499461 -0.11617922 -0.20614529
000040 f4 27 4d be d1 9a 3f be d8 67 52 be 07 d9 2d bd
       -0.20034772 -0.18711402 -0.20547426 -0.0424433
000050 48 a5 47 be f6 31 dd bd 8d c3 44 be 54 50 27 bc
       -0.19496644 -0.10800545 -0.19215222 -0.010212023
000060 90 b9 5b bd b8 53 f4 bd 3c 70 15 be 40 1d 07 be
       -0.053643763 -0.119300306 -0.14593595 -0.13194752
000070 48 c9 10 bd c8 cc e3 bd 30 47 2a bd 2d 9a 6b be
       -0.035348207 -0.11123043 -0.041571796 -0.23008032
000080 e7 36 60 be 66 02 80 be a0 73 3c be 8c cd 36 be
       -0.21895944 -0.2500183 -0.18403482 -0.17851847
000090 89 00 dc bd 7c f2 42 be 0a f9 f0 bd 07 5a c2 bd
       -0.107422896 -0.19037813 -0.117662504 -0.094898276
0000a0 07 5a 55 be ac 73 ae bd e4 c3 99 bd d5 44 12 3c
       -0.20835124 -0.085181564 -0.07508066 0.008927544
0000b0 c1 80 1a be fb 24 d4 bd 1c 88 28 be c2 95 09 be
       -0.15088178 -0.10358616 -0.16458172 -0.13436034
0000c0 2a 80 5d be c7 c6 40 be 7d ee 99 be 54 b2 9c be
       -0.21630922 -0.18825828 -0.30064765 -0.30604804
0000d0 0c 88 4e be c2 c3 15 be 03 27 3d be ac a0 78 be
       -0.20169085 -0.14625457 -0.18471913 -0.24280041
0000e0 68 ac 6c be e6 23 6a be 5a 26 94 be fd 4d 58 be
       -0.23112643 -0.22865257 -0.2893551 -0.211235
0000f0 03 56 57 be d6 35 25 be f7 7d 9b be 92 d8 9e bd
       -0.21028905 -0.16133818 -0.3036954 -0.07756151

bn1.running_mean f4 [64]
000000 12 fd 85 41 f2 81 0e 42 ac 44 b6 c1 bc bd 14 c2
       16.74857 35.6269 -22.783531 -37.185287
000010 cd d9 8f 41 9b 91 3a 41 bf e2 87 42 71 b3 95 c1
       17.981348 11.660548 67.94286 -18.712618
000020 ab 59 33 40 3a 01 ba c1 3a 32 11 42 37 0b 25 c1
       2.802348 -23.250599 36.29905 -10.315238
000030 6a 84 be c1 e4 6b 00 42 e4 6b 93 3f e0 3b a6 41
       -23.814655 32.105362 1.1517301 20.779236
000040 0f ba a8 c1 fa dc e7 c1 38 8f 8f 41 76 ba 38 c1
       -21.090849 -28.982899 17.944931 -11.545523
000050 66 f4 9b 40 7f c1 c3 c1 b6 70 11 42 9e d3 0f c0
       4.873584 -24.46948 36.36007 -2.247291
000060 b5 7e 1d c1 e5 d6 ae c1 29 36 a6 c1 cf d5 3a c1
       -9.843434 -21.854929 -20.776445 -11.677199
000070 7a ca c7 c0 41 2c b4 41 10 5e 1f c1 3a 72 b6 41
       -6.2434664 22.521608 -9.9604645 22.805775
000080 cf 38 2d 42 7a 28 81 41 f6 87 fa 41 14 c7 f4 c0
       43.305477 16.144764 31.316387 -7.6493015
000090 56 c2 88 c1 25 92 95 c1 5c a9 c1 c1 75 68 ed 3f
       -17.09489 -18.69636 -24.207695 1.8547503
0000a0 3f 80 16 c0 79 cf b4 41 ec 30 50 41 87 aa 0b 40
       -2.3515775 22.601305 13.011944 2.1822832
0000b0 1c 36 84 3f a0 d5 a8 40 be 67 57 c1 37 73 ba 41
       1.0329013 5.2760773 -13.462828 23.306257
0000c0 05 d2 a1 c1 e5 7b b2 c1 ba e3 73 c1 2c 71 d0 c0
       -20.227549 -22.310495 -15.243097 -6.513815
0000d0 bc fe 91 41 d6 10 db c1 df cb 69 c1 5f 02 8c c1
       18.249382 -27.38322 -14.612273 -17.501158
0000e0 e8 11 93 c1 74 c1 84 c1 e3 f9 80 c1 5b b5 98 c1
       -18.383743 -16.59446 -16.122015 -19.088552
0000f0 ce 4c 52 c1 03 fb 92 c1 cd e4 15 bf 1f 67 03 41
       -13.143751 -18.372564 -0.5855225 8.212676

bn1.running_var f4 [64]
000000 3c 5f 25 44 82 88 69 44 0c df 38 44 5b f2 b8 44
       661.48804 934.13293 739.4851 1479.5736
000010 bf 23 ec 43 2f fd a7 43 8c 27 46 45 15 d8 68 44
       472.27927 335.978 3170.4717 931.3763
000020 67 74 8b 43 a1 af 3f 44 66 93 70 44 79 ef 2b 44
       278.9094 766.7442 962.3031 687.74176
000030 da a4 1a 44 09 5f 53 44 7a 31 9b 43 ce 94 29 44
       618.5758 845.4849 310.38654 678.3251
000040 b2 71 f6 43 14 8f d0 44 02 d2 ba 43 de 8d dd 43
       492.88824 1668.4712 373.6407 443.10834
000050 88 e6 03 44 ef f0 3e 44 ed 01 75 44 a9 a1 88 43
       527.60205 763.7646 980.0301 273.26297
000060 b0 4f b1 43 ff 95 07 44 e9 53 04 44 78 bb 8a 43
       354.62256 542.3437 529.3111 277.4646
000070 22 10 7a 43 0c d3 00 44 5e 28 89 43 aa ff 26 44
       250.06302 515.2976 274.31537 667.99475
000080 d3 d5 a1 44 c0 7a b1 43 8e 77 69 44 91 63 8b 43
       1294.682 354.95898 933.86804 278.77786
000090 68 22 31 44 d5 5b 1f 44 a0 29 2d 44 f3 bb a8 43
       708.5376 637.4349 692.6504 337.46835
0000a0 7c fb 86 43 eb 1d 07 44 13 3c 8f 43 e5 2d d3 43
       269.96472 540.46747 286.46933 422.35855
0000b0 83 e9 4f 43 e4 27 b2 43 72 bd c7 43 59 9b 41 44
       207.91216 356.31165 399.48004 774.4273
0000c0 31 5b 15 44 c6 e8 6e 44 99 71 99 43 e4 92 a7 43
       597.42487 955.6371 306.88748 335.14758
0000d0 a3 67 f9 43 5f af 96 44 0b e5 cb 43 f5 e4 29 44
       498.80966 1205.4803 407.7894 679.57745
0000e0 f5 5e 09 44 6a 6a 1f 44 6a bc dc 43 61 c7 e9 43
       549.4837 637.6627 441.472 467.55765
0000f0 c6 21 89 43 19 cc 02 44 71 7f ad 43 85 76 68 43
       274.26385 523.189 346.99564 232.46297

conv2.weight f4 [128, 64, 3]
000000 d3 67 11 bd 83 77 12 bd f8 2e c6 bc b4 3b ac 3d
       -0.035499405 -0.035758507 -0.024192318 0.08409825
000010 1c 52 1c 3e 66 c7 71 3d 95 d6 b8 3c 35 92 e0 3b
       0.15265697 0.05902805 0.022563258 0.0068533667
000020 b0 a4 76 bd 4b a4 02 3d 66 04 3b bc c4 af 9f 3d
       -0.060215652 0.031894963 -0.011414623 0.077971965
000030 31 54 95 bd 54 3d e4 3b 92 10 73 bd 85 a8 ba 3b
       -0.07291449 0.0069653187 -0.059341975 0.0056963586
000040 17 1e fe 3b db 69 09 bd cf f7 11 3d ec 84 ea bc
       0.007755052 -0.033548217 0.03563672 -0.028627835
000050 04 e1 20 3d 81 b9 72 bd f2 72 e6 bb d5 cc 06 bb
       0.03927709 -0.05925894 -0.0070327455 -0.0020568867
000060 9d 08 68 bd b2 80 6e 3c fb 04 67 3d 16 ed e5 bb
       -0.05664884 0.014557051 0.056401234 -0.0070167882
000070 0c c9 68 3d 20 a8 06 3e 4c dd 91 bd c1 7a 96 bd
       0.05683236 0.13150072 -0.07122287 -0.07347632
000080 b9 98 82 3d e9 24 c6 3d 0b 0d 57 3d 4b 1f c9 3c
       0.06376786 0.09675009 0.052502673 0.024551054
000090 bd 58 98 bd 4e 03 89 bd 01 98 60 bd b4 02 8e bc
       -0.074388005 -0.066900834 -0.054832462 -0.017335273
0000a0 45 8b fb 3b fe 6a cf bc cc 77 eb bd db 25 92 3d
       0.0076765143 -0.025319573 -0.11497459 0.071361266
0000b0 72 f3 7c be a3 a2 0e bc 57 1f 5b bd b0 71 4e 3d
       -0.24702242 -0.008705768 -0.053496685 0.05040139
0000c0 64 09 97 ba 9a ea 06 3d d0 37 a2 bc b4 00 0d 3e
       -0.0011523184 0.032938577 -0.019802004 0.137698
0000d0 c4 ea f8 3d 5a 8a 03 bd b0 6f a6 3c ec c9 20 3d
       0.12154153 -0.032114364 0.020316929 0.039255068
0000e0 65 a5 a5 3d e2 ce 5e 3c 0b b3 8e bc 56 80 7c bd
       0.08088187 0.013599129 -0.017419359 -0.06164583
0000f0 d9 bd bd 3d 94 9c de 3c 59 67 b3 3d 3e 41 5b 3d
       0.09264726 0.027174272 0.087599464 0.053529017
000100 76 61 e0 bc 66 d5 99 3c 6c 5a 96 bd 5b a6 63 3c
       -0.027390223 0.018778514 -0.07341465 0.013894643
000110 4d 98 de bd e3 4d c4 bd 3f 9b f2 bd d0 5e d7 bd
       -0.10868893 -0.09585168 -0.11846017 -0.10516131
000120 26 24 a1 bc a6 ed 39 be 44 17 c7 bc 89 47 28 3e
       -0.019670557 -0.18157062 -0.024303086 0.16433538
000130 e0 e5 89 bd 07 5b 37 bd 41 01 84 3d 36 fd df 3d
       -0.06733298 -0.044764545 0.06445552 0.10936968
000140 e5 d6 c8 3a 5b 99 02 bd 4b f8 a4 3a dc 2b 19 be
       0.0015322833 -0.031884532 0.0012586204 -0.14958137
000150 f8 8b 6d 3d 44 18 bd bd c3 c2 32 bd d6 02 12 bd
       0.057994813 -0.09233144 -0.04364277 -0.035647236
000160 b9 88 c9 3b 35 ab 90 3d cc 06 34 bc 36 26 aa bd
       0.006150332 0.07063905 -0.010987949 -0.083080694
000170 2a e0 63 bc 74 55 27 bc 71 71 0e be 23 0f 5e bd
       -0.013908425 -0.010213245 -0.13910462 -0.054213654
000180 22 2e cd 3d 69 85 90 bd 3d 85 8a bd a3 c0 e4 3c
       0.10018565 -0.07056696 -0.067636944 0.027923888
000190 b9 9b 9f ba a7 fc c6 3a 9a a9 aa bd 3a 44 fe 3c
       -0.0012177146 0.0015181497 -0.0833313 0.031038392
0001a0 5c 0c d9 bd 91 cb 4a bd 52 b5 91 bd a8 5d e2 3d
       -0.105980605 -0.049510542 -0.07114662 0.1105302
0001b0 6f 1a e4 3d 51 4b d3 bc 42 e3 22 bc 38 ad 09 3c
       0.11137854 -0.02579275 -0.009941878 0.008403115
0001c0 21 dc 03 bd 19 4f 92 bd c1 53 9f bd 8e 07 c1 bd
       -0.032192353 -0.07143993 -0.07779647 -0.09425269
0001d0 59 f9 66 bd 63 ec 10 bd 56 92 90 bd 9b 03 fd bd
       -0.05639014 -0.035381686 -0.07059161 -0.12354203
0001e0 b4 db 68 3d 18 c5 e4 bc cc e5 08 3e 3a 73 83 3d
       0.05685015 -0.027926013 0.1336891 0.06418462
0001f0 e2 19 7c 3d e2 64 de bd e7 27 0a 3e 83 a2 87 bd
       0.06154812 -0.108590856 0.13491784 -0.066227935
000200 39 c5 f1 bd 8b 6b 9b 3d 2b 28 d1 3b 67 cc 0d bd
       -0.11805195 0.075888716 0.006382962 -0.03461876
000210 58 64 58 bd 7f 4b ba 3c a2 1a 01 be 7a 8e 8a bc
       -0.05283007 0.022741077 -0.12607816 -0.016913641
000220 5d 24 84 b9 46 5f 49 bd 4c d6 29 bd 3b 2b 5b 3d
       -0.00025204095 -0.049163125 -0.041464135 0.053508025
000230 dc c6 c0 bd 4e 93 cc 3a c5 35 83 bc 35 6d 11 3d
       -0.094129294 0.0015607865 -0.01601685 0.03550454
000240 48 4a 08 bd ce 9f 75 3d eb bc a1 bb 41 94 8e 3d
       -0.033273965 0.059966855 -0.004935851 0.06961871
000250 f9 83 3a 3d eb 06 12 bd bc d8 31 3d 23 c9 5d bc
       0.045536015 -0.03565113 0.043419585 -0.013536724
000260 91 5d c6 bc 73 40 12 bd b8 52 c8 3d 75 9f 4e 3d
       -0.024214538 -0.035705995 0.09781402 0.05044504
000270 4f ea 9b bc ba 98 0e 3d e9 09 16 bb cf a4 43 bc
       -0.019032625 0.03481362 -0.002289409 -0.011941149
000280 26 be 91 3c 56 6a a9 bd e8 75 85 3b 51 be 16 3d
       0.017790865 -0.08272235 0.0040728934 0.036802594
000290 20 c5 b0 bc 44 b7 ac 3d b4 eb ed 3c 30 4b 45 3d
       -0.021578372 0.08433393 0.029043056 0.048167408
0002a0 ae d5 d5 3c 05 bf 73 3d c9 87 05 be 76 6c f1 bd
       0.026102867 0.059508342 -0.13040079 -0.117882654
0002b0 14 69 a0 bd 24 d1 6a 3d 5e 67 a0 3d e9 be 5f bc
       -0.07832542 0.05732836 0.07832216 -0.013656356
0002c0 b9 97 43 bc e4 b8 9e 3b 29 1c 85 bd 22 b6 22 3d
       -0.011938029 0.004843818 -0.06499512 0.039724477
0002d0 54 28 c2 bd 6f b6 c8 3d b0 cc f4 3d 7f 63 85 bc
       -0.09480348 0.098004214 0.119531035 -0.016282795
0002e0 19 7f 3c bc 16 87 ed 3c bb f7 9d 3c a0 60 f7 3d
       -0.011504912 0.028995078 0.019283166 0.12078977
0002f0 1d 3d 84 bd d9 73 e6 bd 44 e3 71 3d b7 59 8e bc
       -0.06456969 -0.11252565 0.059054628 -0.017376764
000300 92 ba 22 3d 13 d5 9e ba 05 94 35 bc 73 c2 d8 bc
       0.03972871 -0.0012117944 -0.011082654 -0.026459908
000310 ea 59 b7 3d f0 42 eb bc 03 42 f0 bc 9e f7 5d bd
       0.089526966 -0.028718442 -0.029328352 -0.054191224
000320 fe e6 de 3c b8 3a 05 3e 32 2f af 3d 23 eb e3 3d
       0.027209755 0.1301068 0.08553924 0.11128833
000330 f1 f6 c8 bd 9b 28 5a 3c f4 3b c1 3d d9 d7 ac 3c
       -0.09812725 0.013315345 0.09435263 0.021099018
000340 9e fb 3b bd b2 a9 d3 bc d2 bb 89 bc c2 cc 3f b9
       -0.045894258 -0.025837753 -0.016813193 -0.00018291458
000350 f4 91 ac bc c8 01 43 bd 1a b1 6a bc e3 2d 28 bc
       -0.02106569 -0.04760912 -0.014324451 -0.0102648465
000360 e9 61 0c bd 00 12 30 bb a1 a5 7a 3c e7 2d 26 ba
       -0.034273062 -0.0026866198 0.015298278 -0.00063392374
000370 f0 99 50 3d 3c db bb bb aa df bc bd 24 fa 6c bd
       0.050928056 -0.005732922 -0.09222348 -0.05785574
000380 59 e5 4e 3d c3 37 37 be 55 cb 11 3d ac 2c bb 3d
       0.05051169 -0.17892365 0.035594303 0.0913938
000390 00 b4 0c 3e 68 f5 02 bd 47 19 54 3d 31 48 a1 bd
       0.1374054 -0.03197232 0.05178192 -0.078750975
0003a0 e8 5c 0d bc e3 7d 73 bc f2 48 d3 3d 10 33 f4 3d
       -0.008628108 -0.014861557 0.103166476 0.11923802
0003b0 39 12 a3 bd 1c 18 03 3e 05 8e f8 3b 30 01 bb 3d
       -0.0796246 0.12802166 0.0075852894 0.09131086
0003c0 70 f7 e6 3d 79 ad ea 3d de 9e a0 3d 4b 3f f0 bd
       0.11277664 0.114588685 0.078428015 -0.11730822
0003d0 90 f6 4b bc c3 36 42 3d bb 32 64 bd 22 28 2b 3d
       -0.012448922 0.047415506 -0.055712443 0.04178632
0003e0 ef 59 17 bd bf f9 cb b9 5a 92 ef bd 3f af 4f bd
       -0.036951 -0.00038905253 -0.11697836 -0.050704237
0003f0 64 8c 87 bd 3c 3d 0e 3d 52 f7 52 bd 34 82 92 3d
       -0.06618574 0.034726366 -0.051505394 0.071537405

conv2.bias f4 [128]
000000 21 65 05 3d 26 88 8c 3d 03 23 57 3d 02 64 8a 3d
       0.032567147 0.06861906 0.052523624 0.06757356
000010 7e 16 e4 3c 11 05 82 3d 26 a0 56 3d 3c 9e 40 3d
       0.027842756 0.063486226 0.052398823 0.047025904
000020 d0 99 1b 3d c2 25 2d 3d 9e 38 53 3d 77 79 70 3d
       0.037988484 0.042272337 0.051567666 0.058709588
000030 97 33 94 3d 9f 64 b3 3d df 87 e8 bc c0 31 84 3d
       0.072364025 0.08759426 -0.0283851 0.064548016
000040 b5 5b fc 3c 61 e0 ab 3d cb 79 57 bd be 5c 38 3d
       0.030805448 0.08392406 -0.052606385 0.04501032
000050 9d f0 92 3d ac fa 66 bd d8 e3 78 3d b5 dc 78 bd
       0.071747996 -0.056391403 0.060764164 -0.060757358
000060 a5 27 83 3d ee bd 81 3d 47 fa 95 3d 3a da 4a bd
       0.06404046 0.06335054 0.07323127 -0.049524523
000070 9f 0b 34 bd e9 26 ce 3d 33 af 6d 3b fd 9a 86 3c
       -0.043956395 0.10066015 0.0036267757 0.016431326
000080 85 0c 84 bc b9 b8 4e 3d c3 50 8f bd 03 f8 29 3c
       -0.016119251 0.050469134 -0.06997826 0.010374072
000090 9f bf b3 3c de d1 5f bd b5 da 6b bd 1e b8 16 3c
       0.021941958 -0.054643504 -0.057581622 0.00919917
0000a0 3c 04 9e 3c 44 18 f3 3d b4 5c 76 3d 30 a5 0a bd
       0.019289128 0.11869863 0.060147002 -0.03384894
0000b0 a5 bf b0 3c 4c 21 07 bd 89 e2 20 bd b8 db aa 3d
       0.021575758 -0.03299074 -0.03927854 0.08342689
0000c0 89 da f7 bc 59 84 c0 3c 91 b4 d2 bc 1d c1 95 3d
       -0.030255573 0.023500608 -0.025720866 0.07312224
0000d0 0a af 78 3d 70 0e 3d bd 72 91 90 3d 68 7b fa bc
       0.060713805 -0.046156347 0.070589915 -0.030576423
0000e0 12 97 05 bd 27 57 aa 3c 45 c9 1e 3d b3 75 e0 3b
       -0.032614775 0.02079351 0.038766164 0.0068499683
0000f0 aa a6 d2 bc 8d 3c 8e 3d eb 20 dc 3c 03 48 40 3d
       -0.025714237 0.06945143 0.026871165 0.046943676
000100 e3 de bb 3d b4 20 01 bd 09 27 f2 bb 4c 85 8b 3d
       0.09173372 -0.03152533 -0.0073899073 0.06812534
000110 7e 60 93 bc 9f 01 b9 bc a8 26 05 bd b7 44 51 bd
       -0.017990347 -0.02258378 -0.03250757 -0.051090922
000120 86 da 99 3d 44 ef 56 bd f4 9b 22 3d eb 23 0e bd
       0.07512383 -0.052474275 0.03969951 -0.034702223
000130 a0 20 5c bd 5e e5 9d 3d e1 7c 97 bd b7 15 9e 3d
       -0.05374205 0.07709764 -0.07396866 0.077189855
000140 fa b6 34 3d 45 c8 ac 3d 0f 2a 31 ba 8a 70 fa bc
       0.044119813 0.08436636 -0.00067582814 -0.030571241
000150 f5 42 15 bd 71 0b 8c 3d 7a 21 63 bd 85 4e 90 3d
       -0.03644081 0.0683812 -0.055451848 0.070462264
000160 8d 7c cb 3b 46 77 ab 3d 1f 32 e9 bc 8f 85 49 bd
       0.006209916 0.08372359 -0.028466282 -0.049199637
000170 d1 a0 34 bd c8 dd 40 bd d7 43 69 bd 67 64 25 3c
       -0.04409868 -0.047086507 -0.056949463 0.010094739
000180 94 96 0b 3d 91 d4 ac 3c 0c c4 41 bb 1e b8 60 bd
       0.03407915 0.021097453 -0.0029566316 -0.054863088
000190 ad 01 2b 3c c2 cb 34 3c 14 d7 84 3c 4c 04 6b 3c
       0.010437411 0.011034908 0.016215838 0.014344286
0001a0 56 19 3a 3d 2a da e1 bb de 4f e1 3d 5a 56 b1 bc
       0.04543432 -0.0068924623 0.110015616 -0.021647621
0001b0 8e 73 2d bd 1b e4 53 bd 7a 38 81 3d 46 76 f4 3c
       -0.04234653 -0.05173121 0.063096 0.029841553
0001c0 d3 89 0c 3d 44 47 12 3d d0 a1 a7 3d 38 84 ec 3c
       0.034311127 0.035712495 0.0818516 0.02887164
0001d0 20 5f 9a bc 06 6d 9c bd fe c0 4d 3c cd 13 7a bd
       -0.018844187 -0.07637982 0.01255822 -0.06105404
0001e0 94 0e a5 bb 69 28 4e 3d 62 a1 f1 3b fe b9 e3 3d
       -0.0050371382 0.050331507 0.0073739747 0.111194596
0001f0 ff 19 20 bd e5 9d 50 3d aa 84 44 3d b4 7a 95 3d
       -0.03908729 0.05093183 0.04797808 0.072987944

bn2.weight f4 [128]
000000 8a dd 82 3f ce 03 79 3f 3c 63 88 3f c9 07 69 3f
       1.0223858 0.9727143 1.0655284 0.91027504
000010 c7 0c 87 3f af 92 85 3f b7 21 8f 3f d1 4e 8b 3f
       1.0550774 1.0435389 1.1182164 1.0883428
000020 6d 1a 82 3f 29 b1 68 3f b5 bb 78 3f 86 d3 6f 3f
       1.0164315 0.90895325 0.9716142 0.93682134
000030 0b a8 79 3f b3 50 83 3f 3e 45 6e 3f 8d 27 84 3f
       0.9752204 1.0259002 0.93074405 1.032457
000040 7b ee 70 3f 1e c1 83 3f 75 30 8d 3f 99 44 7d 3f
       0.9411389 1.029331 1.1030413 0.98932797
000050 88 45 7d 3f 04 84 63 3f 88 86 7a 3f 5f 24 87 3f
       0.9893422 0.88873315 0.9786153 1.0557975
000060 43 7c 8f 3f 17 79 85 3f d3 ad 84 3f de 50 79 3f
       1.1209797 1.0427579 1.0365547 0.9738902
000070 0d 68 87 3f ff cd 8f 3f 27 d4 82 3f 6c 71 85 3f
       1.0578629 1.123474 1.0220994 1.0425239
000080 4f 41 77 3f 96 4b 82 3f 7c 38 80 3f 2c f9 8e 3f
       0.9658403 1.0179317 1.0017238 1.1169791
000090 99 1a 88 3f 41 ee 80 3f 66 46 85 3f 41 75 81 3f
       1.0633117 1.0072709 1.0412109 1.0113908
0000a0 4f 2c 80 3f 0e eb 86 3f 92 31 71 3f 86 ba 7d 3f
       1.0013522 1.0540483 0.94216263 0.9911274
0000b0 84 e4 81 3f c1 4b 84 3f 9e 8e 80 3f 82 fa 83 3f
       1.0147862 1.0335618 1.0043523 1.0310824
0000c0 d7 47 7b 3f 4f f4 90 3f c9 8b 88 3f b7 99 82 3f
       0.98156494 1.1324557 1.0667659 1.020316
0000d0 9e 8d 83 3f 6d 9f 78 3f c9 4a 87 3f b3 6b 87 3f
       1.0277593 0.97118264 1.0569698 1.0579742
0000e0 74 1a 72 3f 93 d7 85 3f 7a 7b 81 3f 95 a7 80 3f
       0.94571614 1.0456413 1.0115807 1.0051142
0000f0 de 6a 87 3f 01 34 86 3f 20 be 82 3f 92 4d 85 3f
       1.0579488 1.048462 1.0214272 1.0414298
000100 d9 e7 85 3f fc 21 7d 3f 29 2b 82 3f ad 9b 85 3f
       1.0461379 0.9887998 1.0169421 1.0438133
000110 2b 7a 89 3f 38 2d 83 3f c2 b3 87 3f 5e fa 7e 3f
       1.0740408 1.0248175 1.0601733 0.9960078
000120 f2 11 8f 3f c0 c0 7d 3f f9 55 7f 3f 45 b8 7e 3f
       1.1177351 0.9912224 0.9974056 0.99499923
000130 74 1b 86 3f 56 de 7b 3f 09 07 89 3f f4 77 7c 3f
       1.0477128 0.9838613 1.0705272 0.98620534
000140 c8 79 88 3f 9c 6d 90 3f cb 81 65 3f 08 a1 81 3f
       1.0662165 1.128345 0.89651173 1.0127268
000150 0e b2 83 3f ed 7b 84 3f 3f 99 7f 3f 25 56 80 3f
       1.0288713 1.0350319 0.9984321 1.0026289
000160 90 19 87 3f 95 d1 62 3f 07 22 81 3f c1 59 8a 3f
       1.0554676 0.88601047 1.0088509 1.0808641
000170 80 89 6d 3f 0b 8a 80 3f 83 97 77 3f e1 05 87 3f
       0.92787933 1.0042127 0.96715564 1.0548669
000180 83 d4 85 3f b6 03 86 3f bf ba 8d 3f 60 08 85 3f
       1.0455478 1.0469882 1.1072615 1.0393181
000190 53 6a 84 3f c5 03 87 3f e5 33 8e 3f 80 aa 8f 3f
       1.0344948 1.0548025 1.1109587 1.1223907
0001a0 3f 44 6b 3f e6 bc 8e 3f fe 9c 86 3f 6f dc 7a 3f
       0.9190101 1.1151397 1.051666 0.97992605
0001b0 06 69 6c 3f df e0 72 3f ec d9 82 3f 5b 38 66 3f
       0.92347753 0.94874376 1.0222754 0.8992974
0001c0 67 c2 84 3f 89 9c 75 3f 9c 57 86 3f 7e 44 78 3f
       1.0371827 0.9594198 1.0495486 0.9697951
0001d0 e5 bf 8d 3f 2f 83 75 3f 54 04 86 3f 63 e0 60 3f
       1.1074187 0.95903295 1.0470071 0.87842387
0001e0 02 0b 8d 3f d5 30 8b 3f 68 6d 82 3f 70 62 8a 3f
       1.1018984 1.0874277 1.0189638 1.0811291
0001f0 0f 99 85 3f 93 14 86 3f 6b e4 89 3f b6 06 8b 3f
       1.0437335 1.0475029 1.0772833 1.0861423

bn2.bias f4 [128]
000000 25 bd ca be cc 06 55 be ed fe cb be 29 06 e5 bd
       -0.3959743 -0.20803374 -0.3984293 -0.111828156
000010 46 e0 a4 be 4b 2d 5f be d8 2c b9 be 64 bf c6 be
       -0.32202357 -0.21794622 -0.36167026 -0.38817894
000020 7d 4b a4 be 04 4a 29 be 76 00 e5 bd 99 5b 27 be
       -0.32088843 -0.16532141 -0.111817285 -0.16343535
000030 e7 9e 60 be 20 f2 9e be 84 86 bc bd 0a 26 7e be
       -0.21935616 -0.31044102 -0.09205344 -0.24819198
000040 06 91 a5 be a6 c0 45 be 36 fc b1 be 73 54 a2 be
       -0.32337207 -0.19311771 -0.34762734 -0.31705055
000050 7b ec 7f be da 31 48 be 8a 78 96 be 76 ba 90 be
       -0.24992554 -0.19550267 -0.2938884 -0.28267258
000060 08 b1 dd be 4a 53 65 be f9 c7 60 be 09 5e 2b be
       -0.43299127 -0.22395054 -0.21951284 -0.1673509
000070 4c be 54 be 8c 6d e7 be d2 7d a9 be 25 d1 be be
       -0.20775717 -0.45200765 -0.33103806 -0.3726894
000080 3e 73 7e be b8 ea a0 be 63 bd 9b be 43 8e 99 be
       -0.24848649 -0.31429076 -0.30417928 -0.2999135
000090 4e 9d 8d be db f0 6d be d9 93 d0 be 20 70 8a be
       -0.27659076 -0.2323641 -0.407378 -0.2703867
0000a0 22 06 a2 be 63 1f 9e be 7d ea ca bd ae be 9f be
       -0.31645304 -0.3088332 -0.09908006 -0.31200165
0000b0 15 46 99 be bd 64 79 be 8b fc 90 be 80 83 c5 be
       -0.2993628 -0.24354835 -0.28317675 -0.3857689
0000c0 f2 a4 7a be e8 be b7 be 81 94 a0 be bb c6 ae be
       -0.24476984 -0.35887837 -0.313633 -0.34135994
0000d0 5f 46 84 be b4 bd 0b be 10 0a 84 be 63 b3 9a be
       -0.2583494 -0.13646585 -0.25788927 -0.30214986
0000e0 02 9b c0 be c7 13 99 be e0 12 81 be 0a b9 91 be
       -0.37618262 -0.298979 -0.25209713 -0.28461486
0000f0 8b c6 ac be 10 c6 c1 be cf a3 e2 be d6 dc 3d be
       -0.33745226 -0.37846422 -0.442656 -0.18541273
000100 85 24 89 be d0 af 70 be 24 ea 84 be 87 87 da be
       -0.26785675 -0.23504567 -0.25959885 -0.42681524
000110 25 f6 93 be b8 41 8c be 1b 51 92 be 26 69 82 be
       -0.2889873 -0.2739389 -0.28577504 -0.25470847
000120 d6 20 b9 be e8 7e 94 be 3b 32 22 be 14 42 a2 be
       -0.36157864 -0.29003072 -0.15839474 -0.3169104
000130 51 49 43 be ca 1f eb be 97 68 54 be 12 28 6f be
       -0.19070937 -0.4592269 -0.20743023 -0.2335513
000140 90 08 b8 be 58 60 bd be 83 90 43 be f8 6f 87 be
       -0.35944033 -0.36987567 -0.19098096 -0.26452613
000150 4e 8a 7f be ea 63 27 be fb f5 66 be ea 10 81 be
       -0.24955103 -0.16346708 -0.22554772 -0.25208217
000160 35 21 97 be f2 fc 2a be 21 86 8b be 94 ad aa be
       -0.29517522 -0.16698053 -0.2725077 -0.33335555
000170 2b b0 1e be 72 85 8b be 57 8f 21 be ef a9 c8 be
       -0.1549689 -0.27250248 -0.15777336 -0.3919215
000180 59 23 9b be 7e f6 a9 be ca 0f 5c be af ba 8c be
       -0.30300406 -0.3319587 -0.21490398 -0.27486178
000190 9f d5 86 be dc 26 8b be 39 8b 94 be 2e 11 d9 be
       -0.26334855 -0.27178085 -0.29012468 -0.4239592
0001a0 e7 95 24 be 2d 9f a2 be 2d 4a a5 be 53 b9 bf bd
       -0.16072808 -0.31762066 -0.32283154 -0.0936152
0001b0 a4 50 aa be 06 ff 92 be 28 61 93 be 40 01 25 be
       -0.3326465 -0.28710192 -0.28785062 -0.16113758
0001c0 ea 32 42 be d8 8a 89 be 5d c4 b2 be d4 bc 7a be
       -0.18964735 -0.26863742 -0.34915438 -0.24486095
0001d0 8d a6 b5 be 58 80 87 bd f2 d0 8a be fc 08 8c be
       -0.3547863 -0.066162765 -0.27112538 -0.27350605
0001e0 0f 8f 8f be 8e 0e 9f be 2c d9 89 be 21 c7 e8 be
       -0.28038833 -0.31065792 -0.26923501 -0.45464423
0001f0 e4 a3 b5 be f6 d3 8d be 53 a3 a5 be b7 ba 7a be
       -0.354766 -0.27700776 -0.3235117 -0.24485289

bn2.running_mean f4 [128]
000000 46 92 b3 be cb 47 67 3d 2b f1 92 3e 3b b8 51 be
       -0.35072535 0.05646495 0.28699622 -0.20480435
000010 fc ae b3 be a8 89 bb be 62 9f 0d bf b0 81 90 bf
       -0.3509444 -0.3662846 -0.55321324 -1.1289577
000020 65 b7 9c bc 93 fb d5 bc 5e d2 5d bd 78 4b da be
       -0.019130418 -0.026120936 -0.0541557 -0.42635703
000030 1c d3 0c 3f 6c 86 77 3f 58 13 7d bf 03 f8 44 3d
       0.5500963 0.96689487 -0.9885764 0.048088085
000040 0e 9b cf 3e d2 97 90 be 01 e9 45 bf 64 dd b0 3e
       0.40547985 -0.2824083 -0.7730866 0.34543908
000050 db bc c6 be 3b ea 74 be f1 03 6b 3f 56 b8 69 bf
       -0.3881596 -0.23917477 0.9180289 -0.912969
000060 b1 91 57 bf cc 01 97 be 2d be 55 bf e1 3c ad bf
       -0.8420668 -0.29493558 -0.8349331 -1.3534204
000070 0c ba 47 bf 3e 39 42 bf 70 21 9a 3e c6 8d 7f 3b
       -0.7801826 -0.75868595 0.30103636 0.0038994416
000080 a0 a1 f7 bd d1 7b aa 3e 20 51 48 3e 1a 29 2e bf
       -0.120913744 0.3329759 0.19562197 -0.68031466
000090 f1 5b d2 be f9 a6 ce be 29 fd 0f be 04 58 16 bf
       -0.4108577 -0.40361765 -0.14061417 -0.5872805
0000a0 35 d9 4b bd 09 18 1e be 7a e5 38 be 0d e6 05 3e
       -0.04976769 -0.15438856 -0.18056288 0.13076039
0000b0 9c c4 0e 3f b4 8a 94 be 48 2b 14 bf b3 4e 64 3c
       0.5576875 -0.29012072 -0.5787854 0.013934779
0000c0 80 38 eb be 90 ca 55 bf dc 3d 2e bd 59 01 1b 3e
       -0.45941544 -0.8351221 -0.042539462 0.15137233
0000d0 c6 ec cb 3d 6c b7 45 bf 8f dc 87 bd 4b 97 1f bf
       0.0995727 -0.77233005 -0.06633865 -0.6234023
0000e0 2d ff 39 3c 99 36 8d bd da c4 32 bd dd 84 a7 bc
       0.011352343 -0.06895179 -0.043644764 -0.020449096
0000f0 18 88 03 bf fb 92 5f bf 2c bb b6 3e cd e3 2b bf
       -0.5137954 -0.8733365 0.35689676 -0.6714447
000100 46 0e f6 bd ca 83 d1 be fa f5 80 3e 3e 86 9d bd
       -0.12014441 -0.4092086 0.25187665 -0.0769162
000110 41 91 97 3c f1 e9 78 be e0 43 55 be c5 69 00 3f
       0.01850188 -0.24307992 -0.20826674 0.5016139
000120 53 27 ad 3e 81 9f f4 3e 2c 24 ae be c8 67 83 bd
       0.33819064 0.47777942 -0.34011972 -0.06416279
000130 9c e7 03 bf bf 01 a6 3e 61 09 4b bf b7 59 85 be
       -0.5152528 0.32423207 -0.79311186 -0.2604501
000140 c8 bd 95 bd e1 58 64 3d 18 21 0a 3f ad e3 ea be
       -0.073115885 0.055748824 0.5395675 -0.45876828
000150 5e 2f 08 bf 04 e1 73 be ac cb 6c be 31 8d 80 3e
       -0.53197277 -0.23816305 -0.2312457 0.2510772
000160 85 4b ad bd c0 63 9b bf 69 cc dd be ae 18 18 bf
       -0.0846167 -1.2139816 -0.43320015 -0.5941266
000170 3b 45 4b 3e 82 8a 79 be 1c ae 97 bf ea 48 35 bd
       0.19850628 -0.24369243 -1.1850009 -0.04425899
000180 3a 3c ff be 85 86 ea 3d 23 a8 3a bf 24 13 cc bc
       -0.49850637 0.11451439 -0.72912806 -0.02491147
000190 5a cf bd 3d ab 6e ae be 7c 1f 7e bf d8 75 65 bf
       0.09268065 -0.34068808 -0.9926679 -0.8963294
0001a0 21 1e 89 be f5 8e eb be 7d 56 5c bf 90 f5 01 be
       -0.267808 -0.46007505 -0.8606947 -0.12691331
0001b0 dd 2d 33 3f 36 1b 9c be eb 37 80 3e b0 21 59 bf
       0.69991857 -0.3048951 0.25042662 -0.8481703
0001c0 2b d0 24 bf f0 31 1a 3f ef 7c 97 bc a8 07 86 3f
       -0.6438014 0.6023245 -0.01849219 1.0471087
0001d0 1e c5 77 bf 9a 4f c1 bd cf ac 6a be 7b 57 a6 3f
       -0.9678515 -0.09439011 -0.22917484 1.2995447
0001e0 7d 88 38 bf d4 c4 31 be d7 95 e2 bc 92 51 fe be
       -0.72083265 -0.1736024 -0.02765934 -0.49671608
0001f0 07 6f e6 3e 46 cf a0 be 29 d8 95 3d 3c 95 11 bf
       0.45006582 -0.31408137 0.0731662 -0.5686834

bn2.running_var f4 [128]
000000 1c a2 27 3e 2e 0a 9b 3e bd e9 0e 3e 42 66 e7 3e
       0.16370434 0.30281204 0.13956352 0.45195204
000010 cd e6 5c 3e 5e 10 82 3e 9e 08 40 3e 4f 56 70 3e
       0.21572419 0.25403112 0.18753287 0.23470424
000020 5a 24 4e 3e 75 56 9a 3e 4f 9d b5 3e 58 c9 91 3e
       0.20131055 0.30144086 0.3547158 0.28473926
000030 98 51 38 3e 8f dd 5b 3e cd 2a 40 3f 63 4e 1a 3e
       0.17999876 0.21471237 0.7506531 0.15068965
000040 51 56 6a 3e cb c5 0e 3e da ad 59 3e aa 32 29 3e
       0.2288449 0.1394264 0.21257725 0.16523233
000050 7f 9a 7b 3e 03 57 ed 3e 3e 4f 68 3e df d5 50 3e
       0.24570654 0.46355447 0.22686478 0.20394085
000060 b4 ff 70 3e b2 f6 42 3e 7c c3 7e 3e 99 d9 e4 3e
       0.23535043 0.1903942 0.24879259 0.44697264
000070 96 e5 59 3e 89 ae 61 3e dd 00 09 3e a8 87 5b 3e
       0.21278986 0.22039236 0.13379236 0.21438468
000080 9b f9 8c 3e fe 97 38 3e 0a b3 49 3e 0a 2d 1b 3e
       0.27534184 0.1802673 0.19697204 0.151539
000090 f2 29 39 3e 7c f4 4c 3e 3f d3 81 3e 82 29 3e 3e
       0.18082407 0.20015138 0.2535648 0.18570521
0000a0 77 1e 30 3e bc 74 16 3e 84 d8 1f 3f e9 4f 77 3e
       0.17199121 0.14692968 0.6243975 0.24151577
0000b0 7f 3b 41 3e 9a b4 6f 3e 6f 33 8a 3e 60 78 5f 3e
       0.18870352 0.23408738 0.26992366 0.21823263
0000c0 b0 2c 33 3e 38 91 51 3e 78 c5 43 3e 00 de 31 3e
       0.17497516 0.20465553 0.19118297 0.17369843
0000d0 dc c7 27 3e ca 2e 3b 3f fe c5 47 3e 7d 13 24 3e
       0.16384834 0.7311827 0.19509122 0.16023059
0000e0 8a 8b 50 3e bd ce 6b 3e 81 a3 98 3e 89 77 82 3e
       0.2036573 0.23028083 0.29812244 0.25481823
0000f0 b9 8d 22 3e b6 b7 6f 3e eb 71 7b 3e ec a9 44 3e
       0.15874375 0.23409924 0.24555175 0.19205445
000100 c8 79 24 3e 3d 20 78 3e e0 21 4b 3e 5a ff 27 3e
       0.16062081 0.24231048 0.19837141 0.16406003
000110 4e 77 37 3e 6b 6d 73 3e f5 0d 60 3e 3a 3a 50 3e
       0.17916605 0.23772208 0.21880324 0.20334712
000120 d2 e7 22 3e 66 6a 92 3e b4 27 61 3e 56 a2 35 3e
       0.15908745 0.285968 0.21987802 0.17737707
000130 e6 08 86 3e a4 53 4e 3e 9b 92 73 3e a8 4b 06 3e
       0.26178664 0.20149094 0.23786394 0.13114798
000140 d6 c9 62 3e 61 28 1d 3e 77 15 c3 3e ea 84 4e 3e
       0.22147307 0.15347435 0.38102314 0.2016789
000150 d0 5c 2e 3e 3f 1e 68 3e 35 bd 28 3e a5 a0 93 3e
       0.17027593 0.22667788 0.16478427 0.288335
000160 33 99 4a 3e 82 1f 8c 3e fe ba 28 3e 69 54 82 3e
       0.19785003 0.2736779 0.16477582 0.25455025
000170 e1 c9 64 3e e8 04 1e 3e b8 74 52 3e ad 46 46 3e
       0.22342636 0.15431559 0.20552337 0.19362898
000180 9c 7c 59 3e 44 e4 1d 3e 9a 7d 32 3e c8 c8 08 3e
       0.21238941 0.15419108 0.17430726 0.13357842
000190 43 74 a0 3e a2 82 08 3e a0 78 2f 3e ba 5d 32 3e
       0.313387 0.13331082 0.17135859 0.17418566
0001a0 cd 3d 30 3f 2e f3 94 3e 65 1b 65 3e 19 b9 da 3e
       0.688443 0.2909178 0.22373731 0.42719343
0001b0 6a 9c 88 3e 6c b5 50 3e 9c 46 48 3e 31 52 a5 3e
       0.26681834 0.20381707 0.19558185 0.3228927
0001c0 d9 3b 64 3e cc 08 80 3e f1 8f 2d 3e c4 8d cb 3e
       0.22288455 0.2500671 0.1694944 0.39756596
0001d0 46 3d 52 3e 34 94 25 3f fe 16 34 3e 78 05 b0 3e
       0.20531186 0.64679265 0.17586896 0.34379172
0001e0 cd d6 2b 3e 96 1b 28 3e d9 7e 38 3e 0e 2f 48 3e
       0.16781159 0.16416773 0.18017139 0.195492
0001f0 68 d1 58 3e 41 08 2e 3e e3 33 12 3e c1 d3 17 3e
       0.21173632 0.16995336 0.14277606 0.14826871

fc1.weight f4 [128, 256]
000000 67 7a ba 3a f8 17 4c 3d ad 9e 59 3d 91 d1 86 3d
       0.0014227153 0.049827546 0.05312984 0.0658294
000010 be b4 8f 3d 71 67 10 3d 1a 7e e6 bc 79 66 ea bd
       0.07016896 0.0352549 -0.028136302 -0.11445326
000020 01 f2 61 3d 47 27 f3 bb 88 b6 9c 3d f4 18 25 bd
       0.055162434 -0.0074204537 0.076520026 -0.040307
000030 20 ac f5 3d 83 d6 55 3b cf 58 d9 bc a8 74 5b 3e
       0.11995721 0.003262908 -0.026531605 0.2143122
000040 f4 ce 1e 3d 75 b9 dc 3d de 13 5d bd e0 5e 98 bd
       0.038771585 0.107775606 -0.053974025 -0.07439971
000050 eb 5c 25 3a cc eb f6 bb 37 db cb 3c ae a6 73 bd
       0.00063080963 -0.0075354334 0.024884803 -0.05948513
000060 64 ba 28 3d e0 1f e5 3d 6a c2 4c 3d cb 86 9c bc
       0.04119338 0.1118772 0.049990095 -0.019107243
000070 8c 27 e4 3b e3 68 2c bd 97 53 9f 3b de 75 93 bc
       0.006962722 -0.042092215 0.0048622596 -0.01800054
000080 42 25 dd 3a 0d 9e 5f 3d 59 e5 b9 bd 81 78 f1 bd
       0.0016872066 0.05459409 -0.09076948 -0.117905624
000090 5f 5f 66 3e 34 34 15 3e fd e2 40 3d 2b 5a 0b 3d
       0.22497319 0.14570695 0.047091473 0.034021538
0000a0 1a 19 ab 3d 2d 2a b3 bd e1 3e b4 3d d9 a4 12 bd
       0.08354397 -0.08748279 0.08801056 -0.035801742
0000b0 7d 70 4a 3d 9c d6 13 3d 54 58 b6 ba 89 79 39 3d
       0.049423683 0.03609334 -0.0013911822 0.04528192
0000c0 48 5b c7 3d 68 f4 5b be 30 cc 88 bd c5 89 9f bd
       0.097342074 -0.21479952 -0.06679571 -0.07789949
0000d0 97 1f b8 3d 44 dc a8 bc 53 f0 33 3e 26 90 32 bc
       0.089904 -0.020612843 0.17572145 -0.0108986255
0000e0 74 96 1b 3d c6 8b dd bc 7c 3f 89 3d 1f 63 e1 3c
       0.03798528 -0.027044188 0.06701562 0.027513085
0000f0 39 9f 8f bb 46 ff 29 bd a0 46 c4 bc d6 9c 82 3d
       -0.0043829945 -0.041503213 -0.023959458 0.0637757
000100 d3 50 8d bd 86 56 a3 bd 6c b9 41 3e b0 67 a3 bd
       -0.069001816 -0.079754874 0.18918389 -0.07978761
000110 09 23 8a 3d 83 0e d3 bd 4a e1 e5 3d a1 e3 81 bd
       0.06744964 -0.10305502 0.11224611 -0.06342245
000120 22 2e e8 3c 25 30 bc 3b 14 c9 42 3d 05 99 a1 3c
       0.02834231 0.005743044 0.047555044 0.019726286
000130 47 ff 87 3d 72 2e 3c bd 83 03 27 3e 00 0a bd bd
       0.06640487 -0.04594273 0.16309933 -0.09230423
000140 cf c3 a9 bd 0e 75 6e bc 43 af 9a 3d b1 77 eb 3c
       -0.08289301 -0.014554275 0.0755296 0.028743597
000150 96 8f 36 3e 74 67 4a 3d 75 15 b4 3c 36 1c 43 3d
       0.17828211 0.049415067 0.021982888 0.047634326
000160 07 e9 5c bc b2 97 bd bc 3c c2 25 3e 93 f0 93 3c
       -0.013483292 -0.023143623 0.16187376 0.01805905
000170 f9 38 8a 3d 0e 76 d9 bd 4c 95 60 3c 80 7f a3 bd
       0.06749148 -0.1061822 0.01370747 -0.07983303
000180 d9 de 94 3d e7 75 36 bd 0a d6 10 be 55 f2 21 bc
       0.07269067 -0.044546034 -0.1414415 -0.009884437
000190 a3 60 0d 3e 5b 56 dd 3d 16 1b ca bd fc 52 e8 bd
       0.13806395 0.108074866 -0.098684475 -0.11343953
0001a0 80 e7 07 bc 68 8b 45 3c 8b 0f 6c bd 12 bc f8 3d
       -0.00829494 0.012057163 -0.05763201 0.121452466
0001b0 91 11 06 3c 62 bc 2d bd fa 0c 54 3e ed 91 3d bd
       0.008182899 -0.042415984 0.20708075 -0.046281744
0001c0 d4 a1 0d 3e 58 5b fd bc 61 e2 4e bd e0 b7 80 bd
       0.13831264 -0.030927345 -0.05050886 -0.062850714
0001d0 85 56 28 be 95 11 d7 3d 63 89 d7 3d 8e a4 24 3d
       -0.16439255 0.105014004 0.10524251 0.040195994
0001e0 eb 48 a7 3d 76 7f 3c 3d 5f eb 67 bd 6f 79 e4 bd
       0.08168205 0.046019994 -0.05662095 -0.11155974
0001f0 1f 3f 9c 3d 75 9a 88 bd ee ba 46 3d e4 0f 4f 3d
       0.07629227 -0.06670085 0.048518114 0.050552264
000200 ad 8d a5 bc 31 4e 97 3d ff f9 45 3d b5 83 2b 3d
       -0.020209158 0.07387961 0.048334118 0.041873652
000210 57 fe 60 bc 7c 8f 8f bd 00 da 33 bd cd ea c7 bd
       -0.013732514 -0.07009789 -0.043909073 -0.097615816
000220 dc fc 3d 3c 9b 7c b9 3a c1 c9 0a 3d ef 6d 57 bd
       0.011595931 0.0014151515 0.033883814 -0.052595075
000230 a1 2d e3 3d 77 ab b4 3c 0a de 66 3d b3 e1 14 3e
       0.110926874 0.022054417 0.056364097 0.14539222
000240 bf 11 64 3d 16 f1 cc 3d 97 46 7e bd 7a 5b 07 bc
       0.055680986 0.10006921 -0.06207904 -0.008261556
000250 d1 4f c4 bd 9b aa 83 3d 73 7f d6 3c d6 95 3f 3d
       -0.09585536 0.06429025 0.02618382 0.046773754
000260 bb 7d 90 bd 63 78 a1 3d 64 eb 17 3d 16 10 da bc
       -0.07055231 0.0788429 0.03708972 -0.026618998
000270 34 9e 09 bc 94 87 b4 bd 76 45 3c bd e2 97 c7 bb
       -0.008399535 -0.08814922 -0.04596468 -0.006091104
000280 36 1e 11 bd 1f 73 ee 3d a2 a5 a2 bc b9 4a f7 bd
       -0.035429202 0.11643051 -0.01985437 -0.12074799
000290 c0 2a 9d 3d a0 66 53 3d 72 fe 0f bd 92 45 23 bd
       0.076741695 0.051611543 -0.035154767 -0.03986127
0002a0 1e 80 d3 3c c6 4d 67 bd 3d 6f d0 bb 74 7d a9 3c
       0.025817927 -0.056470655 -0.006360917 0.020689704
0002b0 68 94 ab 3b f2 9a 06 bd 5d 65 dd ba 30 59 d9 3d
       0.0052361973 -0.03286261 -0.001689117 0.10612714
0002c0 5b 54 95 3d 84 ea 96 bd 03 98 01 be 57 92 37 bb
       0.0729148 -0.07368949 -0.12655644 -0.002801081
0002d0 f8 fd a7 3c 1e 94 b5 3c ab 35 05 3e 6e 46 24 bd
       0.020506844 0.022165354 0.13008754 -0.04010623
0002e0 91 df ae 3d 1e af b3 bd ab ba 00 bd ab 27 3f 3c
       0.08538736 -0.08773635 -0.03142802 0.011667172
0002f0 04 35 25 bd 42 f7 f2 bc 7a 6c 52 3b c1 b7 35 3d
       -0.040333763 -0.029658917 0.0032108114 0.044364695
000300 35 9a 48 bc 9a f8 ab bd b0 55 bc 3d f4 1d 29 bd
       -0.012243797 -0.08397026 0.09196031 -0.04128833
000310 09 46 b6 bb b6 00 02 be 74 3c ea 3c ac 3b 2b bc
       -0.005562548 -0.12695584 0.02859328 -0.010451239
000320 78 ac 70 3b 38 ef 4a 3d 70 6d 96 3c c5 2b 6b 3c
       0.0036723893 0.049544543 0.01836273 0.014353697
000330 f5 18 9a bd 84 1e 05 bc d6 c5 1c 3e 07 d5 80 bc
       -0.075242914 -0.008124951 0.15309843 -0.01572658
000340 0d d0 a7 bd d1 66 fe 3d c6 f4 b2 bd 8e 24 3f 3d
       -0.081939794 0.124219544 -0.08738093 0.04666572
000350 dd 61 08 3e df bc eb bc 22 34 02 3c 33 8c 0c 3d
       0.13318582 -0.028776584 0.007947 0.034313392
000360 90 08 ca bc 62 44 ff bc 14 77 c4 3d d2 35 fa 3c
       -0.024662286 -0.031160537 0.09593025 0.030543242
000370 28 0c cf bc a7 7b 17 bd 31 85 4b 3d 3a 35 37 3a
       -0.025274351 -0.03698316 0.049687568 0.00069888274
000380 bc 1c a1 3d 53 64 8f bc b6 47 d6 bd 56 bc dc ba
       0.07866809 -0.017503893 -0.104628965 -0.0016840796
000390 df 34 12 3e d3 92 fd bc 0f cf f5 bc f5 6b 02 be
       0.14277981 -0.0309538 -0.03000596 -0.12736495
0003a0 42 51 60 3d ba 41 ad 3d c8 4b 38 bd 96 35 fc bb
       0.054764993 0.08459802 -0.044994146 -0.0076968176
0003b0 dc 2e fb bc d8 90 fd bb e1 b3 22 3e 92 e2 51 3c
       -0.030661993 -0.007738214 0.15888931 0.012810366
0003c0 69 81 ba 3d 6f fa ab bc c7 60 04 3d f0 76 70 bd
       0.09106714 -0.02099344 0.032318857 -0.058707178
0003d0 98 c7 70 bd 20 d3 27 3c f7 2a e2 3d fb 7e 94 bd
       -0.058784097 0.010243207 0.11043351 -0.07250782
0003e0 b0 ce 7a 3d 20 42 85 3d 42 aa 37 bc 19 bc b1 bd
       0.06123227 0.06506753 -0.011210026 -0.08678455
0003f0 cb bc 07 3e 57 e9 df bd 95 ec 5f bd ea f4 5b 3d
       0.13255613 -0.10933178 -0.05466898 0.053700365
